----------------------------------------------------------------
        Layer (type)               Output Shape         Param #
================================================================
           Flatten-1                [-1, 12288]               0
            Linear-2                  [-1, 128]       1,572,992
              ReLU-3                  [-1, 128]               0
           Dropout-4                  [-1, 128]               0
            Linear-5                    [-1, 1]             129
           Sigmoid-6                    [-1, 1]               0
================================================================
Total params: 1,573,121
Trainable params: 1,573,121
Non-trainable params: 0
----------------------------------------------------------------
Input size (MB): 0.05
Forward/backward pass size (MB): 0.10
Params size (MB): 6.00
Estimated Total Size (MB): 6.14
----------------------------------------------------------------
Starting epoch:  0
…
